backend/data/models/trust_model.pt (torch, 12805 bytes, 5 tensors)

fc1.weight f4 [64, 4]
-0.45503414 0.22064501 -0.275863 -0.19387221 -0.45149708 0.23297733 0.22388065 -0.4674089
-0.3492124 0.094989896 0.027489722 0.2940883 0.3229991 0.030962192 0.12980604 0.3393349
0.40237588 0.24497223 -0.48270148 0.17892069 -0.25657523 -0.057501018 0.19698596 0.035454154
-0.062104285 -0.29846072 -0.47203124 0.21505874 -0.4999401 0.0536505 0.45260215 0.10111648
-0.47048992 0.26306385 -0.06326693 -0.45758045 -0.36563104 -0.050435603 0.052729785 -0.4025733
-0.19751155 -0.47052914 0.26032418 0.12653154 0.10929065 -0.43110242 -0.10133692 -0.06744443
-0.18600357 -0.025466561 -0.09486222 -0.002438128 -0.16199982 -0.05357641 -0.23611987 0.36187762
0.031181874 -0.2763315 0.07264451 0.3245496 -0.049632072 0.22248185 0.16758448 -0.066300154
-0.10699332 -0.06791663 0.055642486 0.16282624 0.43635076 0.2298683 0.005130014 -0.44378152
-0.34362018 -0.146133 -0.07594615 0.46030056 0.29812357 -0.49281156 -0.15862316 0.18226534
0.39267355 -0.10152836 0.061439272 -0.26149705 -0.04550022 -0.16417116 0.49923635 -0.48456413
-0.16664433 -0.012558937 -0.072282255 -0.14246732 0.47411975 -0.34674123 0.47339877 0.20211557
-0.042844355 -0.23632342 -0.07498342 -0.08845562 -0.39131796 -0.014927387 -0.47815078 0.36749923
-0.10891986 -0.4558217 -0.49435806 -0.36817825 0.01468216 0.3352263 -0.2971619 -0.49536666
-0.3189265 -0.47867018 0.27625895 0.4249913 0.40075347 0.08992691 0.42223388 -0.31850636
-0.35351235 -0.49295944 0.14230108 -0.003548503 0.40618843 -0.08493772 0.43282202 -0.18925354
-0.28760636 0.2518162 -0.3891605 -0.2943889 -0.28041083 0.031383216 -0.20846385 -0.10831499
-0.19226861 0.17372572 0.044497788 0.022399127 0.10238735 0.19039907 -0.3739151 0.33837247
0.42880479 -0.41781053 -0.031292375 0.082289405 0.3381253 0.36520007 0.22370194 -0.22712593
0.052241236 0.2831297 0.46279323 -0.03187509 0.43452626 -0.31794333 -0.095984265 0.42632285
0.12886448 -0.4185049 -0.20658594 0.35182673 0.4709634 -0.2255674 -0.327044 0.306295
-0.16408497 -0.11450839 0.25194108 -0.26531047 0.22821456 -0.27880177 0.07185742 -0.16947024
-0.0633775 0.4487096 0.41565895 -0.2730757 -0.38420236 0.49776566 -0.37306207 0.23017418
-0.064872205 -0.07131767 -0.46892 0.17065555 0.2707554 -0.27079105 -0.40094998 0.07848869
0.27543503 -0.13356069 -0.080844566 -0.38499016 -0.24418598 -0.10407919 0.41945744 0.02073741
0.23895209 0.19571784 -0.29407266 0.47549203 -0.0049009323 -0.40011936 0.11813241 0.13431615
0.41592687 0.24932547 -0.15954062 -0.30970025 0.44320908 0.46054214 0.47034007 0.11092879
-0.30358785 0.33434957 0.25586665 -0.48531377 -0.17446148 -0.20534825 0.054320335 -0.16802806
-0.058000207 -0.34347707 0.22954601 0.055390596 -0.17738599 0.29139018 -0.42314702 0.48681152
-0.19844139 -0.112389386 0.22783178 -0.078695476 -0.085778534 -0.036106586 0.16375935 -0.42603934
-0.49010813 -0.29062915 0.20110643 -0.14490485 -0.38049364 0.0614776 0.30795616 0.45792532
-0.36374325 -0.3245154 -0.10027605 -0.21860874 0.39469314 -0.01391783 -0.39760467 -0.0510124
00000000: 3cfa e8be c4f0 613e ea3d 8dbe 7086 46be
00000010: a02a e7be 9c91 6e3e f840 653e 3850 efbe
00000020: f8cb b2be 108a c23d 2032 e13c be92 963e
00000030: 2360 a53e 6ca4 fd3c e0eb 043e 4ebd ad3e
00000040: 3604 ce3e 00da 7a3e a624 f7be fc36 373e
00000050: d45d 83be 3086 6bbd b0b6 493e 6038 113d
00000060: 1061 7ebd d8cf 98be 14ae f1be 5c38 5c3e
00000070: 26f8 ffbe a0c0 5b3d 78bb e73e 2816 cf3d
00000080: 0ee4 f0be 4eb0 863e 1892 81bd fc47 eabe
00000090: fe33 bbbe 9095 4ebd 30fb 573d 161e cebe
000000a0: 7840 4abe 32e9 f0be 3649 853e 7c91 013e
000000b0: c7d3 df3d 75b9 dcbe bb89 cfbd 4e20 8abd
000000c0: b877 3ebe 409f d0bc 2047 c2bd 00c9 1fbb
000000d0: 48e3 25be f072 5bbd 68c9 71be 0648 b93e
000000e0: 2171 ff3c 537b 8dbe a5c6 943d 5d2b a63e
000000f0: 004b 4bbd 48d2 633e 449b 2b3e 60c8 87bd
00000100: 501f dbbd e017 8bbd 60e9 633d ecbb 263e
00000110: 5e69 df3e 9862 6b3e ad19 a83b 5537 e3be
00000120: fcee afbe e4a3 15be a889 9bbd 84ac eb3e
00000130: a7a3 983e cc51 fcbe 1c6e 22be c4a3 3a3e
00000140: 820c c93e 1aee cfbd bfa7 7b3d f1e2 85be
00000150: 705e 3abd 7c1c 28be e89b ff3e ca18 f8be
00000160: d0a4 2abe 00c4 4dbc b808 94bd f4e2 11be
00000170: d3bf f23e 1188 b1be 5361 f23e 62f7 4e3e
00000180: 907d 2fbd c4fe 71be e890 99bd 3828 b5bd
00000190: d45a c8be 0092 74bc 2ed0 f4be dc28 bc3e
000001a0: 6011 dfbd 7661 e9be 801c fdbe dc81 bcbe
000001b0: 718d 703c c8a2 ab3e 9b25 98be b3a0 fdbe
000001c0: 564a a3be 4214 f5be d071 8d3e 7698 d93e
000001d0: 8f2f cd3e 9a2b b83d 0a2f d83e 4413 a3be
000001e0: 92ff b4be 2e65 fcbe 60b7 113e 008e 68bb
000001f0: eef7 cf3e d4f3 adbd d99a dd3e aecb 41be
00000200: 2441 93be 0eee 803e 0c40 c7be 24ba 96be
00000210: 0292 8fbe b08b 003d 8c77 55be 40d4 ddbd
00000220: 10e2 44be 28e5 313e 5043 363d 607e b73c
00000230: 75b0 d13d f9f7 423e cd71 bfbe 283f ad3e
00000240: 4d8c db3e 43eb d5be 6f2c 00bd 5987 a83d
00000250: c21e ad3e 81fb ba3e 1f12 653e b393 68be
00000260: e8fa 553d 60f6 903e 3cf3 ec3e 748f 02bd
00000270: 3a7a de3e 78c9 a2be 6693 c4bd fd46 da3e
00000280: 0df5 033e 4646 d6be 448b 53be a222 b43e
00000290: 1d22 f13e 24fb 66be 5072 a7be b3d2 9c3e
000002a0: e405 28be 6083 eabd 6cfe 803e c6d6 87be
000002b0: 14b1 693e 1bbf 8ebe fc29 933d 9b89 2dbe
000002c0: 10cc 81bd 44bd e53e 40d1 d43e 94d0 8bbe
000002d0: 2cb6 c4be 24db fe3e fe01 bfbe c8b2 6b3e
000002e0: b8db 84bd 000f 92bd 4816 f0be 54c0 2e3e
000002f0: 74a0 8a3e 20a5 8abe 5149 cdbe aebe a03d
00000300: d205 8d3e 22c4 08be d691 a5bd 6e1d c5be
00000310: e40b 7abe 7827 d5bd 20c3 d63e 80e1 a93c
00000320: dbaf 743e 426a 483e b190 96be b173 f33e
00000330: 0098 a0bb 72dc ccbe 68ef f13d 2c8a 093e
00000340: 5ef4 d43e 2d4f 7f3e 9e5e 23be 0891 9ebe
00000350: 4dec e23e 2ecc eb3e 6ad0 f03e a22e e33d
00000360: de6f 9bbe de2f ab3e f400 833e 0c7b f8be
00000370: 08a6 32be d046 52be 007f 5e3d 8c0f 2cbe
00000380: a091 6dbd 3adc afbe 1c0e 6b3e 40e1 623d
00000390: aca4 35be 1831 953e baa6 d8be 5c3f f93e
000003a0: 3834 4bbe 682c e6bd bc4c 693e 182b a1bd
000003b0: a8ac afbd 80e4 13bd 88b0 273e d421 dabe
000003c0: 74ef fabe 58cd 94be d8ee 4d3e f061 14be
000003d0: 10d0 c2be f0cf 7b3d 6eac 9d3e 3075 ea3e
000003e0: 8e3c babe e226 a6be 885d cdbd f8da 5fbe
000003f0: 3815 ca3e 9c07 64bc d792 cbbe 61f2 50bd

fc1.bias f4 [64]
0.09102613 0.08683777 0.1307239 0.19313535 0.4079819 0.43098474 -0.041195333 -0.2715345
0.19681644 0.3431459 -0.26539445 -0.48000693 -0.19749027 0.2349096 -0.31307548 -0.46582228
0.11690974 -0.09965974 -0.020785868 0.45463133 -0.19844544 -0.031699955 0.14100337 0.3850798
-0.40736562 0.080085754 -0.41549772 -0.4550107 -0.28078634 0.009792224 -0.18310422 0.25074193
-0.241485 -0.12969851 -0.49738902 -0.089523196 -0.43840927 -0.371099 0.086472474 -0.03259885
0.4685831 0.212248 -0.45029104 -0.21115977 -0.44637036 0.38160312 -0.33278072 -0.26323473
0.3387266 0.3914271 -0.49011803 -0.44139326 0.28756183 0.33740208 -0.35389078 -0.027451813
-0.25997204 0.35387164 0.25113153 -0.345174 0.44257933 -0.36581153 0.40056384 0.5051944
00000000: e86b ba3d 00d8 b13d 7cdc 053e 46c5 453e
00000010: 01e3 d03e 08aa dc3e 70bc 28bd 9206 8bbe
00000020: 408a 493e d2b0 af3e c8e1 87be 78c3 f5be
00000030: e43a 4abe 248c 703e 6e4b a0be 4280 eebe
00000040: 606e ef3d 681a ccbd 2047 aabc 70c5 e83e
00000050: 4835 4bbe d0d7 01bd 3063 103e 2e29 c53e
00000060: 3a92 d0be 0004 a43d 1ebc d4be 2af7 e8be
00000070: 3ac3 8fbe 906f 203c ac7f 3bbe 3f61 803e
00000080: d847 77be b0cf 04be c6a9 febe f057 b7bd
00000090: 2e77 e0be b000 bebe 7b18 b13d 5f86 05bd
000000a0: 20ea ef3e 8a57 593e 8c8c e6be 443a 58be
000000b0: a88a e4be 7c61 c33e 3c62 aabe b4c6 86be
000000c0: 936d ad3e 2269 c83e c0f0 fabe 4cfe e1be
000000d0: 4e3b 933e f7bf ac3e 2c31 b5be a0e2 e0bc
000000e0: 0e1b 85be aa2e b53e 5094 803e a6ba b0be
000000f0: c299 e23e a64b bbbe b416 cd3e 6c54 013f

fc2.weight f4 [32, 64]
0.0922513 -0.12124269 0.017359346 0.07281872 -0.090265244 0.06796056 -0.08538583 -0.08497457
-0.041726843 0.04093294 -0.07179414 -0.059705693 -0.10892776 -0.03710264 0.038848456 -0.017211944
-0.046960667 -0.035051316 -0.067110986 0.040805742 0.08709301 0.0085490495 0.0031558573 0.08419957
0.037905023 -0.10734627 0.023136482 -0.0165396 -0.10306151 -0.011009694 0.10863073 0.015955089
0.02383402 0.07863425 0.11644265 0.05805345 -0.12556481 0.102166906 0.09728928 -0.07161266
0.027869953 -0.019194916 -0.06263849 -0.015129822 0.09022735 -0.10231064 0.08678047 -0.051051345
-0.1151995 -0.087466106 0.070997775 0.12049839 -0.08998419 -0.11062593 0.09107664 -0.06283279
0.04542753 0.08827546 0.08811396 0.10164158 -0.10025799 -0.00081926584 0.077120006 0.039260488
0.10665417 -0.04816705 0.025209934 0.09985659 -0.016966343 -0.11248362 -0.10389498 -0.09522371
-0.07125226 0.06847535 -0.11292969 0.03850773 0.109293 0.05684714 -0.07483263 0.024888098
0.009512037 -0.043359764 0.08551161 0.010942942 0.101793595 -0.024430707 -0.04396677 -0.05093452
0.057167917 0.11615911 -0.05668524 0.09674696 0.021743238 -0.03360544 -0.081759796 0.05492657
0.08021422 -0.070283994 0.041536212 -0.015121824 0.026313676 0.121530935 0.08748631 0.1288646
0.026454993 0.11240358 0.000290066 -0.09931684 -0.09108056 0.020282537 -0.060538173 -0.010732627
-0.09641529 -0.07145475 0.05987768 -0.026154548 0.04443563 -0.045608714 -0.10170075 0.038021907
0.10937455 -0.10996859 -0.06784271 0.089891076 -0.12426458 0.00016926229 0.021237984 -0.09909745
0.055443004 -0.105356365 -0.06457828 0.002701398 0.08821538 0.09734093 0.10892874 -0.01095143
-0.07980728 0.052047238 0.1240844 0.0035145385 0.09124234 0.10252035 -0.061162397 -0.07098605
0.020924896 0.08001391 -0.03773856 0.007071676 0.024235468 -0.08600637 0.0076436847 -0.042789496
-0.11617124 -0.042800903 0.051562563 0.1195097 -0.046968564 0.031835318 -0.012300536 0.004723215
0.06060429 -0.056106925 -0.11129211 -0.024598105 -0.017462889 0.123786405 0.020082798 0.093191326
-0.097919114 -0.11454859 -0.025758222 -0.01766161 0.016004339 -0.011338696 0.018624455 -0.087697215
0.07248168 0.07357642 -0.004124058 -0.06480919 -0.063608386 0.087253086 0.058166504 0.0948112
0.05165249 -0.057911918 -0.08922604 0.005668223 -0.0704404 -0.062195405 -0.050299287 0.073675215
0.10606353 -0.08960299 0.070310205 0.065858066 0.006897385 -0.1080804 0.055101752 -0.12175806
0.109159455 -0.08685152 -0.11699939 0.022772616 -0.07973783 0.09748882 0.11329894 0.11799613
-0.022448465 -0.08611375 -0.021165326 -0.024253227 -0.015128228 0.008269116 0.10654867 0.07044916
0.08648135 -0.061059177 0.10962117 0.014924065 -0.030898362 -0.023573644 0.036389604 0.0019645698
-0.028985083 0.1227348 0.027595237 0.077166155 -0.120169505 -0.08449991 -0.019743176 -0.08295394
-0.07231241 0.03240403 -0.10938755 -0.03771164 -0.10274707 -0.060277298 -0.120890126 0.013702988
-0.12401041 -0.04319851 0.11458396 0.11399777 -0.037620794 0.1104224 -0.08348264 -0.046049744
0.105364844 0.029361323 0.11777854 -0.012237221 0.037692487 0.016776562 -0.07649852 -0.029078962
00000000: 40ee bc3d 164e f8bd 3035 8e3c fb21 953d
00000010: fcdc b8bd e82e 8b3d c4de aebd 2607 aebd
00000020: c4e9 2abd 4ca9 273d ce08 93bd f58d 74bd
00000030: 8415 dfbd f0f8 17bd 8f1f 1f3d 1000 8dbc
00000040: d459 40bd f891 0fbd 7c71 89bd ec23 273d
00000050: d25d b23d 5011 0c3c 80d2 4e3b d370 ac3d
00000060: 4c42 1b3d 5cd8 dbbd b888 bd3c 0e7e 87bc
00000070: ea11 d3bd 0162 34bc ca79 de3d 3fb4 823c
00000080: 903f c33c fe0a a13d 7c79 ee3d 74c9 6d3d
00000090: 1094 00be e23c d13d 9a3f c73d a9a9 92bd
000000a0: 874f e43c a83e 9dbc 9c48 80bd 13e3 77bc
000000b0: 1ec9 b83d 3e88 d1bd f6b9 b13d 371b 51bd
000000c0: b7ed ebbd 6e21 b3bd 4867 913d dcc7 f63d
000000d0: a249 b8bd d98f e2bd 6486 ba3d 7aae 80bd
000000e0: 3812 3a3d c4c9 b43d 1875 b43d 7629 d03d
000000f0: 1054 cdbd 00c4 56ba 18f1 9d3d 9bcf 203d
00000100: 806d da3d d04a 45bd 1085 ce3c 9d81 cc3d
00000110: 00fd 8abc d05d e6bd e4c6 d4bd a604 c3bd
00000120: b4ec 91bd ce3c 8c3d ae47 e7bd 48ba 1d3d
00000130: 02d5 df3d 8cd8 683d da41 99bd 20e2 cb3c
00000140: 60d8 1b3c 029a 31bd b620 af3d 074a 333c
00000150: 2979 d03d e822 c8bc 8016 34bd b7a0 50bd
00000160: e828 6a3d d4e4 ed3d c82e 68bd 4523 c63d
00000170: e01e b23c dca5 09bd ae71 a7bd affa 603d
00000180: 5a47 a43d 0ef1 8fbd e021 2a3d 87c1 77bc
00000190: c78f d73c 36e5 f83d 062c b33d 15f5 033e
000001a0: 24b8 d83c d933 e63d 0014 9839 a166 cbbd
000001b0: 7288 babd 9027 a63c e0f6 77bd e6d7 2fbc
000001c0: 6175 c5bd de56 92bd 4c42 753d 1042 d6bc
000001d0: 2302 363d 34d0 3abd 7c48 d0bd dcbc 1b3d
000001e0: c4ff df3d 3637 e1bd 1ef1 8abd d018 b83d
000001f0: 6e7e febd 007c 3139 48fb ad3c 9bf3 cabd
00000200: 3418 633d 14c5 d7bd 9e41 84bd f009 313b
00000210: 44aa b43d ae5a c73d 0816 df3d a06d 33bc
00000220: 0072 a3bd 7c2f 553d f61f fe3d 2c54 663b
00000230: 44dd ba3d 30f6 d13d 6c85 7abd 2261 91bd
00000240: b06a ab3c 55de a33d c093 1abd 85b9 e73b
00000250: 7689 c63c 1c24 b0bd e077 fa3b 0a44 2fbd
00000260: 30eb edbd 0050 2fbd 4433 533d 80c1 f43d
00000270: 1c62 40bd c065 023d 3088 49bc 33c5 9a3b
00000280: 343c 783d 60d0 65bd 1eed e3bd f781 c9bc
00000290: 550e 8fbc ba83 fd3d ae84 a43c 18db be3d
000002a0: d189 c8bd 7398 eabd e802 d3bc 15af 90bc
000002b0: 881b 833c f0c5 39bc 5092 983c 999a b3bd
000002c0: 4671 943d 3caf 963d 1b23 87bb aeba 84bd
000002d0: 1d45 82bd bfb1 b23d 0040 6e3d 602c c23d
000002e0: 9091 533d 0c35 6dbd 24bc b6bd 80bc b93b
000002f0: 0e43 90bd 9cc0 7ebd a006 4ebd 08e3 963d
00000300: d637 d93d c681 b7bd ccfe 8f3d 98e0 863d
00000310: 7603 e23b 4259 ddbd 60b2 613d 4a5c f9bd
00000320: fe8e df3d 36df b1bd 609d efbd a38d ba3c
00000330: 964d a3bd 38a8 c73d 4609 e83d f4a7 f13d
00000340: d8e5 b7bc 685c b0bd e862 adbc b4ae c6bc
00000350: 63dc 77bc 307b 073c 3036 da3d a647 903d
00000360: 221d b13d 3019 7abd 1081 e03d 1184 743c
00000370: 901e fdbc 841d c1bc 440d 153d 03c0 003b
00000380: 2072 edbc 625c fb3d 680f e23c 4a09 9e3d
00000390: 6e1b f6bd 4a0e adbd 71bc a1bc c1e3 a9bd
000003a0: 8718 94bd 17ba 043d 9406 e0bd 8577 1abd
000003b0: 0e6d d2bd 54e5 76bd 3e95 f7bd 7f82 603c
000003c0: 2bf9 fdbd ecf0 30bd ffaa ea3d aa77 e93d
000003d0: 4318 1abd 2425 e23d f2f8 aabd a89e 3cbd
000003e0: 86c9 d73d 2887 f03c e035 f13d a07e 48bc
000003f0: 7063 1a3d 006f 893c 42ab 9cbd 0137 eebc

fc2.bias f4 [32]
-0.10404539 0.051730182 -0.024728542 0.081787795 -0.12507777 0.119183205 0.06827062 0.035488676
-0.09002158 -0.040206652 0.08372172 -0.1311789 -0.026166245 -0.064843096 0.11448704 0.0068549393
0.08951113 -0.014375341 -0.01980442 -0.12768967 -0.016223907 0.006517595 0.07054725 0.06631153
-0.093348265 0.025708545 -0.06518138 0.06507084 0.105267674 0.11070392 0.09468691 -0.1336891
00000000: c015 d5bd 07e3 533d 8393 cabc 5c80 a73d
00000010: 6314 00be 5316 f43d 78d1 8b3d 935c 113d
00000020: 3c5d b8bd bbaf 24bd 4b76 ab3d c353 06be
00000030: 985a d6bc 75cc 84bd 2e78 ea3d 669f e03b
00000040: 9c51 b73d 8d86 6bbc e13c a2bc 15c1 02be
00000050: 00e8 84bc 8d91 d53b 147b 903d 57ce 873d
00000060: 602d bfbd ba9a d23c d17d 85bd dc43 853d
00000070: 9496 d73d bdb8 e23d 36eb c13d cce5 08be

fc3.weight f4 [1, 32]
-0.1068217 -0.1731124 -0.0206738 0.020273771 -0.10817235 0.08756598 0.09731601 -0.13270734
0.059415188 0.050474815 0.15980922 -0.06382812 -0.031064482 -0.040004596 0.09013361 -0.16847152
0.00035306936 -0.13331375 0.063947834 -0.016150378 0.0610759 0.10950436 0.008417936 0.00015873244
-0.021540683 0.16177323 0.07120662 -0.001761206 0.1452287 -0.07981139 0.015693005 -0.012054613
00000000: 56c5 dabd 6144 31be 1a5c a9bc 2e15 a63c
00000010: 7789 ddbd cb55 b33d 9e4d c73d 6fe4 07be
00000020: 575d 733d aebe 4e3d 07a5 233e 51b8 82bd
00000030: f17a febc dcdb 23bd f897 b83d cc83 2cbe
00000040: 2b1c b939 6683 08be 15f7 823d cc4d 84bc
00000050: b92a 7a3d d243 e03d 62eb 093c 6a71 2639
00000060: 1676 b0bc e2a7 253e c7d4 913d 44d8 e6ba
00000070: d5b6 143e 2774 a3bd 9e8e 803c b680 45bc
